chatbot-deployment/data.pth (torch, 5015 bytes, 6 tensors)

l1.weight f4 [8, 53]
00000000: c634 6cbe a6cf 833e 720a bbbe d1a9 cd3e
00000010: 7bd5 a93e 2b8d 2f3f 1401 8abe 1122 e7be
00000020: 90a2 7dbe 49e1 70be a041 153f a31c b93e
00000030: a48a 2a3d 3d3a 813e ad85 783e 3c1e f13e
00000040: 48a3 253f 62b4 2c3f 458d 43be d11b 243f
00000050: 18d5 e8bd e535 423f 82f4 383f d16c 543f
00000060: bfaa 6d3e 61cf d53e a99c f4be d85b c53e
00000070: c057 c0be 35c5 113e fb97 dc3e b351 da3e
00000080: 7503 f2bd 72c4 59be 9731 343e d3df 5b3e
00000090: 81c7 8fbe 9bb6 b8bd 8c05 16be b67e 7abd
000000a0: 6218 d83e 7b55 673e 8c17 9e3e a570 da3d
000000b0: eed4 963e af9e 2ebf 2077 fcbd bc30 673d
000000c0: c98c 6bbe f2a8 a83e 8e25 c3be 40e2 15be
000000d0: 3f91 f23c b9b4 ca3e 61fb 8fbd 0f3b f8bd
000000e0: db4b a33e bc68 8d3e 402b 12bf cf9f 2cbe
000000f0: a97f febb b4b7 f9be d298 12be c1a7 cd3e
00000100: c792 80be abf9 cfbd bd16 a0be f826 35be
00000110: 50ec f23c 515f b03e 0748 05bf 1113 e53e
00000120: 30c2 d33e eba3 0b3f 9e3c a53e 9cb5 003f
00000130: 780d cc3e f5c7 c7bc 5854 8f3e 0064 a43e
00000140: 37fc 9ebe 9201 733e 8afc 8cbe a468 b7be
00000150: 0ac5 afbe c775 bb3e 9359 a6be 1db6 1dbe
00000160: 44c6 dcbd e44a 8b3e 6067 cfbe 45a2 cabd
00000170: 3d07 a0bc 16a4 70be 145d 80be 0ae1 9bbd
00000180: 7d6b e8bd dcac 5bbe 6409 823f 263c d83e
00000190: 2b6a 603e e726 af3e dfc9 2bbe cdbb fb3e
000001a0: da97 75be 5a63 0b3e b691 393e 49df 493f
000001b0: 97c2 013f 3229 773e 5a79 ec3e 6a8e 22bf
000001c0: 69f2 c83e 5ade b73e 5e86 103f f1ba 003f
000001d0: 8291 5f3e a3eb 89be 9676 cf3e f5cf b4be
000001e0: 5308 053f a6b2 95be fec1 a73e 8e8a 22bf
000001f0: b46c dabe d182 b03e f547 5a3e 218f 513e
00000200: 2c7b ae3e 347e 993d 56db cc3c 4aa8 4a3e
00000210: 1112 acbe 8143 353f 8c68 a5be c38d 033f
00000220: 6bc1 e2be 2ee2 94be 253b 983d d64d 863e
00000230: cff2 4f3f 3543 f9bd c056 30be a601 173f
00000240: 6443 963e 8036 0d3f 211d ccbe 76ed 0dbe
00000250: 821f 2f3f 4ea8 953d 5f41 503f e468 153e
00000260: 296d 393e 5d38 ffbd a75a fdbd 1602 c4be
00000270: ecde b7be 39de c93e 8850 c53e c8aa 80be
00000280: 5dc1 fa3e c0d5 9d3e b673 353e c064 d1be
00000290: 964f d03e 3308 a03e 9c8b 913e 0e40 0ebd
000002a0: ee00 9c3e bd36 55be b92b b53e e06b d83e
000002b0: 0867 d63e 08b0 003f aed9 3a3e 0787 d0bd
000002c0: 6a1a 153f 4457 b6be d3f2 2ebe f68e 36be
000002d0: 638e 8bbe 4609 43be 1d6e 123e 5b3d c63e
000002e0: 9551 4f3c a422 81be 1cf4 273f 9c9f be3d
000002f0: d75d d43e 50d1 ef3e 10be f63e 0010 74be
00000300: b85d f03e f4cb 0f3f cad2 853e 443a 09be
00000310: 2458 c4bd 1f3b 863e c20a 903e fa51 153f
00000320: d6d5 b03e 2dd2 f13e 1c27 093f 6f22 223f
00000330: af7c 02bf 7dfd a3bd 1534 033d f0ef 0dbc
00000340: d3a4 0d3e 3af7 a5be 6118 243e 298c 9a38
00000350: 4552 be3e a269 2bbd 92d1 0e3e 460a 1d3e
00000360: e1ea 4e3e 6438 ecbe 6d53 5e3d de47 903e
00000370: 7469 a0be de82 4a3d a372 993e 93e7 a3be
00000380: e1c9 38bd 79c8 2ebe 62e4 e0bd fc6f d2bc
00000390: d506 983e 2940 ecbe 4b9c 4dbd 5af3 ce3e
000003a0: 8b73 8a3e 7f96 de3e 827f b13e 3177 7b3e
000003b0: d513 9fbd 790f a93e c78c 8cbe 7289 8ebe
000003c0: 9061 0abe d8ba f9bd f570 adbe ad1e 3abe
000003d0: d1a9 5e3e 7de4 dc3d 7a2e 12bd da21 9abd
000003e0: 49a9 5cbe a464 8ebe 3153 d03d efdb 023d
000003f0: 8007 98be d0ce 84be 8e3b 3dbe 0cb0 07bd
-0.23067006 0.2574436 -0.36531407 0.40168622 0.33170685 0.6857478 -0.26953948 -0.45143178
-0.24769044 -0.2352344 0.5830326 0.3615466 0.041636124 0.25239745 0.24269743 0.4709338
0.6470227 0.6746274 -0.19096859 0.64104944 -0.113687694 0.75863487 0.7224809 0.8297854
0.23209666 0.4175978 -0.47775772 0.38546634 -0.37566948 0.14235385 0.43084702 0.42640457
-0.118170656 -0.21266344 0.17597042 0.21472101 -0.28081897 -0.09019204 -0.14650553 -0.061155997
0.42206103 0.22591202 0.3087734 0.106660165 0.29459327 -0.6821088 -0.12327409 0.05644296
-0.23002924 0.32941395 -0.3811459 -0.14637089 0.029610274 0.39591005 -0.070303686 -0.121206395
0.3189381 0.27618968 -0.57097244 -0.16857837 -0.007766683 -0.48772967 -0.14316109 0.4016705
-0.25111982 -0.10155042 -0.31267348 -0.17690647 0.029653698 0.3444772 -0.5206303 0.4474111
0.4135909 0.54546994 0.3227281 0.50277114 0.39854026 -0.02438734 0.27994037 0.32107544
-0.310518 0.23731068 -0.27536422 -0.35822022 -0.34330016 0.36613294 -0.32490215 -0.15401502
-0.10780004 0.27205575 -0.40508556 -0.09894232 -0.019534701 -0.23500094 -0.25071013 -0.07611282
-0.11348627 -0.2145266 1.0159116 0.4223339 0.219155 0.34209368 -0.16776226 0.49166718
-0.23983708 0.13612118 0.1812199 0.7885633 0.50687546 0.24136809 0.46186334 -0.63498557
0.39247444 0.35911828 0.5645503 0.5028525 0.2183285 -0.2693759 0.4052016 -0.3531491
0.51965827 -0.2923786 0.32765192 -0.6349267 -0.4266106 0.34474805 0.21316512 0.20464756
0.34078348 0.074947745 0.025006931 0.1979076 -0.33607534 0.7080613 -0.32306325 0.51388186
-0.4428819 -0.2907881 0.07433156 0.2623126 0.8122987 -0.12171022 -0.17220592 0.5898689
0.2934829 0.55161285 -0.39865974 -0.13860115 0.6840745 0.07307492 0.8134975 0.14590794
0.18108048 -0.12461922 -0.12370806 -0.3828284 -0.35912263 0.39427355 0.38538003 -0.25130296
0.4897565 0.3082714 0.17719921 -0.4089718 0.4068572 0.31256256 0.28426826 -0.034729056
0.3046946 -0.20821662 0.3538492 0.42269802 0.41875482 0.502686 0.182471 -0.101820044
0.5824343 -0.35613453 -0.17084818 -0.17827973 -0.2725707 -0.19046506 0.14299817 0.38718686
0.012653728 -0.2522174 0.65606856 0.09307787 0.41477844 0.4683938 0.4819188 -0.23834229
0.46946502 0.5617058 0.26137382 -0.13401133 -0.09587124 0.2621698 0.28133208 0.5832821
0.34538144 0.47230664 0.535753 0.6333379 -0.509715 -0.080073334 0.03203209 -0.008663163
0.13832407 -0.3241518 0.16024925 7.369399e-05 0.37172142 -0.041848786 0.13947132 0.1533595
0.20206787 -0.46136773 0.05427878 0.2817983 -0.31330454 0.04944121 0.29970273 -0.32012615
-0.0451144 -0.17068662 -0.109810606 -0.025688164 0.29692712 -0.461427 -0.05019788 0.40420038
0.27041277 0.43474194 0.34667593 0.24557187 -0.077674545 0.33019617 -0.27451155 -0.27839237
-0.1351378 -0.12193841 -0.33875242 -0.18175764 0.21744467 0.10785768 -0.035688855 -0.07525988
-0.21548952 -0.27811158 0.101721175 0.031948026 -0.29693222 -0.25939035 -0.1847975 -0.033126876

l1.bias f4 [8]
00000000: f163 7a3f 5914 1f3f 5c83 223f 247e 023f
00000010: 8240 ec3e b2d8 523f 0aad f63e 23df 443f
0.9780875 0.62140423 0.6348169 0.50973725 0.46142966 0.823619 0.48178893 0.7690298

l2.weight f4 [8, 8]
00000000: 88e9 203f f902 943f e60b a03f 1ab9 48bf
00000010: 7f05 6e3f b2f1 793e e228 85bf 27f9 bc3f
00000020: a232 c03f 95df 89be 944a 34bf 0460 083f
00000030: 5931 e5be 60ce 8f3f 3137 acbe f544 193e
00000040: 2102 42be 50f9 2dbf 1621 8b3f a2a4 a93e
00000050: 5a25 5fbf 9b55 883f 68fd b33f 0905 553e
00000060: 40e6 76bd b6ec 653e 026e 98be 78f5 7c3d
00000070: 884f a23d b26e 253e fccd a1be 2e73 a4be
00000080: 5ab6 903f b07f 56bf 1b77 8b3f 2437 973f
00000090: b742 96be 2dec 2c3e 44d0 0b3f 73fd dabc
000000a0: 1897 45bd 4f53 93be 9d7d 2cbe 00b8 0ebd
000000b0: bc61 923d 556f 97be e814 9abe 7f8c 00be
000000c0: d3a7 e83e ff51 ac3f ebb4 3ebf 865b 4cbf
000000d0: d247 823d 34a2 8f3f d7dd 553f a39a af3f
000000e0: a977 9a3f 34a2 13bf 3680 a13e 373a 3a3f
000000f0: 5b43 09bf ba02 343f 75f7 87bf 90ea d53e
0.6285634 1.1563407 1.2503631 -0.7840744 0.92977136 0.24408606 -1.0403101 1.4763535
1.5015452 -0.26928392 -0.704263 0.5327151 -0.44764212 1.1234856 -0.33635858 0.14967711
-0.18946125 -0.67958546 1.0869472 0.33133417 -0.8716637 1.0651125 1.4061708 0.20802702
-0.060278177 0.2245358 -0.2977143 0.061757535 0.07925326 0.16155508 -0.31602466 -0.32119125
1.1305649 -0.83788586 1.0895723 1.1813703 -0.29347774 0.16886969 0.54614663 -0.026732182
-0.048239797 -0.28774497 -0.16844793 -0.034843445 0.071475476 -0.29577127 -0.30094075 -0.12553595
0.4544054 1.3462523 -0.7449481 -0.79827154 0.06361355 1.1221375 0.83541626 1.3719066
1.2067767 -0.5766938 0.3154313 0.7274508 -0.536184 0.7031666 -1.0622393 0.4178052

l2.bias f4 [8]
00000000: b387 793d 480a 3b3f c28e 7fbe d7ac 4fbe
00000010: ff96 f4bb 906e 7ebd 1828 1b3f b9f3 a83e
0.06092043 0.7306256 -0.24956802 -0.20280777 -0.007464289 -0.06211716 0.60608053 0.32998446

l3.weight f4 [7, 8]
00000000: 1c53 8fbf d9cf 413f fbab b6bf 00b1 91be
00000010: aacb 5ebd 91c8 45be 42d7 babf 7be0 623f
00000020: a9a7 a83b c209 74be 9dbe 313e b061 933d
00000030: 6e4b 9ebd 7af5 a0be 5a9f 89bf 3644 233f
00000040: 282b a5bf 97ac 0b3f e6a2 8b3c 9014 953c
00000050: fa53 adbd 491e 04be 1b4a 993e 9625 adbd
00000060: bd8e 013f 62f9 833e b385 51bf d8fa 25bd
00000070: a7e1 23bf 6e53 623e 988f 803c 89cd 673e
00000080: 9bb3 47bf ca78 10be ea9a cd3e 3d03 af3e
00000090: f77a 9ebf 93c6 993e f5da 5f3f d524 9fbf
000000a0: e6b2 0abf b36d 72bf b17f 243f 8c8b b2be
000000b0: 3660 133f f040 10be 583d c8be 90b5 9cbf
000000c0: e950 773f 686d 95bf 18de 8cbf c03d d0bb
000000d0: bf83 d8bf bced 17be f804 fd3e 6aef bbbf
-1.1197238 0.75707775 -1.4271234 -0.28455353 -0.054393448 -0.19314791 -1.4596941 0.8862378
0.00514694 -0.23831847 0.1735787 0.07196367 -0.07729231 -0.31437284 -1.0751755 0.63775957
-1.2903795 0.54560226 0.01704545 0.018198282 -0.08463283 -0.12902178 0.2993935 -0.084544346
0.50608426 0.257762 -0.81844634 -0.040522426 -0.64016193 0.22102138 0.01569347 0.22636999
-0.7800843 -0.14108577 0.40157253 0.34182158 -1.2381276 0.30034313 0.87443477 -1.2433115
-0.5417923 -0.9469864 0.6425734 -0.3487209 0.5756868 -0.14087272 -0.39109302 -1.2242908
0.96607834 -1.1674013 -1.1005278 -0.0063550174 -1.6915206 -0.14836782 0.49417853 -1.4682438

l3.bias f4 [7]
00000000: 8376 ec3e 46ab 4dbf 133a 2ebe f118 4abe
00000010: 01fa 52be 484d db3e 5bef 073f
0.46184167 -0.8033947 -0.17014341 -0.19736077 -0.20603181 0.42832398 0.530996
